…
       shuffle=True,
       pin_memory=True)
   #+END_SRC

   #+RESULTS:
   :RESULTS:
   # Out[6]:
   :END:

   #+BEGIN_SRC ipython :async t
     latent_dim = 4
     n_epochs = 2
     run = 3
     torch.manual_seed(run)
     model = ConvVAE(input_h=28, input_w=28, latent_dim=latent_dim)
     model.fit(mnist_train,
               n_epochs=n_epochs,
               lr=1e-4,
               log_dir=f'runs/convvae/mnist/stride_latent_{latent_dim}_epochs_{n_epochs}_run_{run}')
   #+END_SRC

   #+RESULTS:
   :RESULTS:
   # Out[7]:
   #+BEGIN_EXAMPLE
     ConvVAE(
     (encoder): Encoder(
     (net): Sequential(
     (0): Conv2d(1, 16, kernel_size=(3, 3), stride=(2, 2), padding=(1, 1))
     (1): ReLU()
     (2): Conv2d(16, 32, kernel_size=(3, 3), stride=(2, 2), padding=(1, 1))
     (3): ReLU()
     (4): Flatten()
     (5): Linear(in_features=1568, out_features=1024, bias=True)
     (6): ReLU()
     (7): Linear(in_features=1024, out_features=512, bias=True)
     (8): ReLU()
     )
     (mean): Linear(in_features=512, out_features=4, bias=True)
     (scale): Sequential(
     (0): Linear(in_features=512, out_features=4, bias=True)
     (1): Softplus(beta=1, threshold=20)
     )
     )
     (decoder): Decoder(
     (net): Sequential(
     (0): Linear(in_features=4, out_features=512, bias=True)
     (1): ReLU()
     (2): Linear(in_features=512, out_features=1024, bias=True)
     (3): ReLU()
     (4): Linear(in_features=1024, out_features=1568, bias=True)
     (5): ReLU()
     (6): Reshape()
     (7): ConvTranspose2d(32, 16, kernel_size=(3, 3), stride=(2, 2), padding=(1, 1), output_padding=(1, 1))
     (8): ReLU()
     (9): ConvTranspose2d(16, 1, kernel_size=(3, 3), stride=(2, 2), padding=(1, 1), output_padding=(1, 1))
     (10): Sigmoid()
     )
     )
     )
   #+END_EXAMPLE
   :END:

   Serialize the fitted model parameters.

   #+BEGIN_SRC ipython
     torch.save(model.state_dict(), f'/scratch/midway2/aksarkar/singlecell/mnist-stride_latent_{latent_dim}_epochs_{n_epochs}_run_{run}.pt')
   #+END_SRC

   #+RESULTS:
   :RESULTS:
   # Out[8]:
…
