…
       batch_size=batch_size,
       shuffle=True,
       pin_memory=True)
   #+END_SRC

   #+RESULTS:
   :RESULTS:
   # Out[5]:
   :END:

   #+BEGIN_SRC ipython :async t
     latent_dim = 4
     n_epochs = 2
     run = 5
     model = ConvVAE(input_h=28, input_w=28, latent_dim=latent_dim)
     model.fit(mnist_train,
               n_epochs=n_epochs,
               lr=1e-5,
               log_dir=f'runs/convvae/mnist/latent_{latent_dim}_epochs_{n_epochs}_run_{run}')
   #+END_SRC

   #+RESULTS:
   :RESULTS:
   # Out[49]:
   #+BEGIN_EXAMPLE
     ConvVAE(
     (encoder): Encoder(
     (net): Sequential(
     (0): Conv2d(1, 32, kernel_size=(3, 3), stride=(1, 1), padding=(1, 1))
     (1): ReLU()
     (2): Conv2d(32, 64, kernel_size=(3, 3), stride=(1, 1), padding=(1, 1))
     (3): ReLU()
     (4): Flatten()
     (5): Linear(in_features=50176, out_features=1024, bias=True)
     (6): ReLU()
     (7): Linear(in_features=1024, out_features=512, bias=True)
     (8): ReLU()
     )
     (mean): Linear(in_features=512, out_features=4, bias=True)
     (scale): Sequential(
     (0): Linear(in_features=512, out_features=4, bias=True)
     (1): Softplus(beta=1, threshold=20)
     )
     )
     (decoder): Decoder(
     (net1): Sequential(
     (0): Linear(in_features=4, out_features=512, bias=True)
     (1): ReLU()
     (2): Linear(in_features=512, out_features=1024, bias=True)
     (3): ReLU()
     (4): Linear(in_features=1024, out_features=50176, bias=True)
     (5): ReLU()
     )
     (net2): Sequential(
     (0): ConvTranspose2d(64, 32, kernel_size=(3, 3), stride=(1, 1), padding=(1, 1))
     (1): ReLU()
     (2): ConvTranspose2d(32, 1, kernel_size=(3, 3), stride=(1, 1), padding=(1, 1))
     (3): Sigmoid()
     )
     )
     )
   #+END_EXAMPLE
   :END:

   Draw some samples.

   #+BEGIN_SRC ipython
     rng = np.random.default_rng(1)
     with torch.no_grad():
       z = rng.normal(size=(10, latent_dim))
       xh = model.decoder.forward(torch.tensor(z, dtype=torch.float, device='cuda')).squeeze().cpu().numpy()
   #+END_SRC
…
